data mining/Final project Part 2/prelu_model.pth (torch, 4144 bytes, 5 tensors)

net.0.weight f4 [16, 13]
0	0xbe038309	-0.12842955
1	0x3e648878	0.22317684
2	0x3d835707	0.064130835
3	0x3e1a24db	0.15053122
4	0x3e9119ec	0.2834009
5	0xbe974e46	-0.29551905
6	0xbf31678d	-0.6929863
7	0x3e1a57ae	0.1507251
8	0xbbe5ca41	-0.007012636
9	0xbf03c917	-0.51478714
10	0xbe5f6fe9	-0.21820034
11	0xbe6c8eb7	-0.23101316
12	0x3f2268ce	0.6344117
13	0xbe1e4ee8	-0.15459788
14	0x3e8c5fdd	0.27416888
15	0xbf11e2ac	-0.569865
16	0x3f24bce7	0.6435074
17	0x3bc53427	0.00601818
18	0xbe07bc09	-0.13255323
19	0xbf049fb0	-0.51806164
20	0xbe5506d5	-0.20803387
21	0xbf33e99a	-0.7027832
22	0xbd55519d	-0.052079786
23	0xbd969efe	-0.07354544
24	0x3f1cc45b	0.61237115
25	0x3d8b9d56	0.06817119
26	0x3e46d80e	0.19418356
27	0x3f17cef9	0.5930019
28	0x3ef3ab55	0.47591653
29	0x3ea2d4b5	0.31802908
30	0x3eb95dca	0.36204368
31	0x3d9f34c5	0.07773737
32	0xbf3efa44	-0.74600625
33	0x3dc85ad4	0.09782949
34	0x3ece4d0a	0.4029315
35	0xbeaf9c25	-0.34298816
36	0x3ea47aea	0.32125026
37	0x3eba9a1a	0.36445695
38	0x3ec05a15	0.37568727
39	0xbe6330d4	-0.22186595
40	0x3f3239a0	0.6961918
41	0xbdc9e2f9	-0.09857745
42	0xbe9afe32	-0.3027206
43	0x3db4221b	0.087955676
44	0xbe22ff42	-0.15917686
45	0xbefd566f	-0.49480006
46	0x3dc1072c	0.09425196
47	0x3e935799	0.2877777
48	0xbfb2cf6a	-1.3969548
49	0x3dfe4eef	0.12417399
50	0x3d1d054f	0.03833514
51	0x3e934735	0.28765264
52	0xbdadb9d2	-0.08482708
53	0x3e3bfb67	0.18357621
54	0xbdc6dff7	-0.09710687
55	0xbe09ef8f	-0.1347029
56	0x3c824d21	0.015905919
57	0xbf0aced2	-0.5422183
58	0xbfae905a	-1.3637803
59	0x3e0e4fcd	0.13897629
60	0x3f1426b0	0.5787153
61	0x3ebbe366	0.3669693
62	0x3fb0bc69	1.3807498
63	0xbe445a49	-0.19175066
64	0x3ebeca64	0.37263787
65	0x3b75bfaf	0.0037498286
66	0xbe19b198	-0.15009153
67	0x3b74656f	0.0037291904
68	0xbded194b	-0.1157709
69	0x3cb68c37	0.022283657
70	0xbb6f4216	-0.0036507896
71	0xbf56ce76	-0.83908784
72	0xbc3bd2ee	-0.011463864
73	0x3f55c78a	0.835076
74	0xbc15aebe	-0.0091359
75	0xbf28b3d5	-0.658994
76	0xbc828843	-0.015934115
77	0x40946760	4.637619
78	0xbe278eb9	-0.16363038
79	0x3dab96d4	0.083783776
80	0x3de65dc0	0.1124835
81	0x3e2ca4d2	0.16859749
82	0xbe586fda	-0.21136418
83	0xbe5b0904	-0.21390158
84	0xbd668bc0	-0.05628562
85	0xbe6889aa	-0.22708765
86	0xbde0a72a	-0.10969384
87	0xbc5dbc80	-0.013533711
88	0xbe11ea46	-0.14249524
89	0xbe535cfe	-0.20640942
90	0x3e822d85	0.25425354
91	0xbc2647e0	-0.010148972
92	0x3dffe43f	0.12494706
93	0xbbdfc1b6	-0.006828512
94	0xbbc16946	-0.005902442
95	0x3d1ecd70	0.03877014
96	0x3c98ea0a	0.018666286
97	0x3eb00489	0.3437846
98	0xbd0fe526	-0.035130642
99	0x3d22aa2a	0.039713062
100	0x401e26c4	2.471116
101	0xbe188a90	-0.14896607
102	0xbc80cdd2	-0.015723143
103	0x3bd43d66	0.006477046
104	0x3f1872a0	0.59549904
105	0xbe3f9286	-0.18708238
106	0xbeeef95a	-0.46674615
107	0xbda70486	-0.0815516
108	0x3f1573bc	0.5837972
109	0xbd1e8f13	-0.038710665
110	0xbf8f9ce0	-1.121975
111	0xbd6a160a	-0.057149924
112	0x3e42b03f	0.19012545
113	0xbe8ae7a8	-0.27129865
114	0xbf5a09da	-0.8517128
115	0x3f44ff37	0.76951927
116	0x3eda3093	0.42615184
117	0x3d579fd8	0.052642673
118	0x3ee68dd8	0.45030093
119	0x3d163e3c	0.036680445
120	0x3d15ad50	0.036542237
121	0x3b5279fd	0.0032116168
122	0xba9ba632	-0.0011875092
123	0xbe6c8c03	-0.23100285
124	0x3cf92a45	0.030415663
125	0x3e11d078	0.14239681
126	0x3facfa42	1.3513873
127	0x3e4b4141	0.19849111
128	0xbc5cdad7	-0.01347991
129	0xbcd7e819	-0.02635579
130	0xbdb9cf93	-0.09072795
131	0x3e4f80ff	0.20264052
132	0xbe080453	-0.132829
133	0xbf06d187	-0.52663463
134	0x3ebf4e16	0.37364262
135	0xbe6a6767	-0.22891007
136	0xbf051729	-0.51988465
137	0xbd885438	-0.066566885
138	0x3e556d46	0.20842466
139	0xbf2e8f3d	-0.68187314
140	0xbd8e36e1	-0.06944061
141	0x3ed9e899	0.4256027
142	0xbf0a6cd9	-0.5407234
143	0xbc0a7100	-0.008449793
144	0x3ed8c539	0.4233797
145	0xbe0a9ff3	-0.13537578
146	0xbdd587db	-0.10426303
147	0xbdad45c7	-0.084605746
148	0x3d540a04	0.051767364
149	0xbe8c0eed	-0.27355137
150	0x3dcbe89f	0.09956478
151	0xbdfb1447	-0.12259727
152	0xbfc7277d	-1.5558926
153	0x3ea407de	0.32037252
154	0xbdd05aa6	-0.1017354
155	0xbd3f4b09	-0.04670242
156	0x3be26a27	0.006909627
157	0xbe7e0afb	-0.24808876
158	0x3cacf5b5	0.021113256
159	0xbc9e40f5	-0.019318083
160	0xbc841e3d	-0.0161277
161	0xbd06db70	-0.032924116
162	0xbe8cf7f4	-0.27532923
163	0x3d0bd5a6	0.034139298
164	0x3d39ce23	0.045362603
165	0x407136fb	3.7689807
166	0x3cd5f4e5	0.026117751
167	0x3b919521	0.0044428264
168	0x3ca5252a	0.020159323
169	0x3c7bae13	0.015361327
170	0xbe446445	-0.19178875
171	0x3ce3661c	0.02775865
172	0x3c6d4f65	0.014484261
173	0x3d3323eb	0.043735426
174	0x3c0fd79b	0.008779432
175	0x3dd61674	0.10453501
176	0x3d0806b0	0.033209503
177	0x3dc56173	0.096377276
178	0xbf0cc01a	-0.54980624
179	0x3e19de23	0.15026145
180	0x3c8eea53	0.017445719
181	0x3ee1717d	0.44031897
182	0xbdf4a4ea	-0.11945517
183	0xbd88fa42	-0.06688358
184	0xbc89ff00	-0.016845226
185	0x3df6e290	0.12054932
186	0xbd22c23c	-0.039736018
187	0xbe6b9926	-0.2300764
188	0x3dc52a48	0.09627205
189	0xbe8a7259	-0.27040365
190	0x3e669786	0.22518739
191	0x3e2f75ae	0.17134735
192	0xbe702a71	-0.2345369
193	0xbe199492	-0.14998081
194	0x3e358dc8	0.17729867
195	0xbb35fd76	-0.0027769483
196	0x3edaa947	0.42707273
197	0x3e74273c	0.23843092
198	0x3edcd756	0.43133038
199	0xbe28abd6	-0.164718
200	0xbc588825	-0.013216053
201	0x3e11945d	0.14216752
202	0xbd72dc13	-0.05929191
203	0x3f078db8	0.5295062
204	0xbfb6f1a5	-1.4292494
205	0xbe0951d6	-0.13410124
206	0xbe7327d2	-0.23745659
207	0xbe1cf0b9	-0.15326203

net.0.bias f4 [16]
0	0x3ded16cd	0.115766145
1	0xbd2fd9d7	-0.042932358
2	0x3ef83249	0.48475865
3	0x3e5d0104	0.21582419
4	0x3daa9136	0.08328478
5	0xbe4cafeb	-0.19988982
6	0xbce1b380	-0.027551413
7	0xbcd5f42e	-0.02611741
8	0xbd6c5a34	-0.057703212
9	0x3e223c34	0.15843278
10	0xbdef99de	-0.1169927
11	0x3ecf4b50	0.40487146
12	0xbce2b969	-0.027676301
13	0xbdf217c9	-0.11820943
14	0xbe6d751c	-0.23189205
15	0x3f0f48da	0.5597054

net.2.weight f4 [8, 16]
0	0x3edcea33	0.4314743
1	0x3ff159c2	1.8855517
2	0x3e809561	0.25113967
3	0x3eca21c4	0.39478886
4	0x3df24780	0.11830044
5	0x40229435	2.5402958
6	0xbd3298c0	-0.043602705
7	0x3f46053a	0.77351725
8	0x3e46a27f	0.19397925
9	0x3e602913	0.21890669
10	0x3eb706da	0.35747415
11	0x3d570743	0.05249716
12	0x3e4b7de9	0.1987225
13	0x3f2d3e04	0.67672753
14	0x3e11b424	0.14228874
15	0x3ebdc0f5	0.37061277
16	0x3e4876fe	0.19576642
17	0xbe6cc66f	-0.23122571
18	0xbe94fc58	-0.29098773
19	0x3e45e9d8	0.19327486
20	0xbe04ab8b	-0.12956063
21	0xbdfc47ef	-0.12318408
22	0x3e10d274	0.14142781
23	0xbe61006a	-0.21972814
24	0x3d8a2e75	0.06747142
25	0xbdb4436e	-0.08801924
26	0x3e684af2	0.2268484
27	0x3d82d080	0.063874245
28	0xbd4d5472	-0.05012936
29	0xbbbe9973	-0.0058166324
30	0x3cd1ff60	0.025634468
31	0xbd9cb99e	-0.07652591
32	0x3eb2aeeb	0.34899077
33	0x3fe45030	1.7836971
34	0x3eb348b8	0.35016418
35	0x3e7937bd	0.24337669
36	0xbe8a495e	-0.270091
37	0x402a36ff	2.6596067
38	0x3e75b4b6	0.23994717
39	0x3f1e280c	0.61779857
40	0x3e8c75ec	0.27433717
41	0x3f01c01f	0.5068378
42	0x3eb2aeb6	0.3489892
43	0x3e7f4b8c	0.24931163
44	0x3ebc4d58	0.3677776
45	0x3e837dd4	0.25681937
46	0xbd0cf5b0	-0.034413993
47	0x3eb77fbc	0.3583964
48	0x3d863c52	0.06554474
49	0xbfc88221	-1.5664712
50	0x3e211ebe	0.15734383
51	0x3e287513	0.1645091
52	0x3e5b1808	0.21395886
53	0xbec71b54	-0.38888037
54	0xbd4bf608	-0.04979518
55	0xc063a944	-3.5572062
56	0x3ec2119d	0.37904063
57	0xbf28ffa9	-0.66015106
58	0xbcf7a08d	-0.030227924
59	0x3e740ac2	0.23832229
60	0xc05911a3	-3.3917015
61	0x3e2435c1	0.1603613
62	0xbe0f6224	-0.14002281
63	0x3e82d48b	0.25552782
64	0xbf2c68ab	-0.6734721
65	0xbf458bc0	-0.77166367
66	0x3eb47184	0.35242856
67	0xc020a52f	-2.510082
68	0x3f22b5e5	0.635588
69	0xc0356cdf	-2.83477
70	0xbd1c6ba8	-0.038188607
71	0x3e6195b6	0.22029766
72	0xbfea9209	-1.8325816
73	0x3f0cb40f	0.5496225
74	0xbfde53c9	-1.7369319
75	0xc00b9899	-2.1811888
76	0x3eb3a3d5	0.3508593
77	0xbf2ec00d	-0.68261796
78	0xbe653000	-0.22381592
79	0xc000b0ec	-2.0107985
80	0x3ec8ca9b	0.39217076
81	0x3fce4b83	1.6116794
82	0x3e949c41	0.29025462
83	0x3e8922fc	0.26784503
84	0x3a92a797	0.0011188862
85	0x401a8a2a	2.4146829
86	0x3d2ce208	0.042207748
87	0x3f0962ab	0.5366618
88	0x3f01d5d9	0.5071693
89	0x3ea565ee	0.3230433
90	0x3f07196f	0.52773184
91	0x3e72d4f8	0.23714054
92	0x3ebdfd15	0.3710715
93	0x3ee24b96	0.44198292
94	0xbdde456c	-0.10853085
95	0x3e585a5e	0.21128222
96	0x3e967406	0.29385394
97	0xbfb257c9	-1.393304
98	0x3e9b288b	0.3030437
99	0x3e380574	0.1797083
100	0x3d19e6c0	0.037573576
101	0xbf34d8d9	-0.70643383
102	0x3e200110	0.15625405
103	0xc07a021d	-3.906379
104	0x3e829474	0.25503886
105	0xbf4210b7	-0.75806755
106	0x3dc40eb5	0.09573118
107	0xbc799c9f	-0.015235095
108	0xc0742e8e	-3.8153415
109	0xbe80236a	-0.2502702
110	0x3cdd8b90	0.027044088
111	0x3c82d9af	0.01597294
112	0x3d37362d	0.0447294
113	0xbfd239b9	-1.6423866
114	0x3e90f31c	0.28310478
115	0x3ea7f21e	0.32801908
116	0xbb65d3a8	-0.0035068784
117	0xbebf0d22	-0.37314707
118	0xbd70aae8	-0.05875674
119	0xc078836e	-3.8830218
120	0x3e7f7888	0.24948323
121	0xbf151a56	-0.5824331
122	0x3e12f972	0.14352968
123	0xbdbd4973	-0.09242525
124	0xc05c057b	-3.4378345
125	0xbe8d02b2	-0.2754112
126	0x3e5038c4	0.20334154
127	0x3e923089	0.28552654

net.2.bias f4 [8]
0	0x3d992dba	0.07479425
1	0xbec86e4a	-0.39146644
2	0xbe0bab7f	-0.1363964
3	0x3e9ae3dd	0.3025197
4	0x3ea3ea22	0.32014567
5	0xbe22d1a3	-0.15900283
6	0x3f18b480	0.5965042
7	0x3e801130	0.25013113

net.4.weight f4 [1, 8]
0	0xbec675f6	-0.38761872
1	0x3eef0adb	0.4668797
2	0xbf0b6ba7	-0.5446114
3	0x3f343457	0.70392364
4	0x3f96c268	1.1778078
5	0xbec47575	-0.38370863
6	0x3f6017d9	0.8753639
7	0x3f2f77a1	0.68541914
