data mining/Final project Part 2/prelu_model.pth (torch, 4144 bytes, 5 tensors)

net.0.weight f4 [16, 13]
00000000: bfdf 90be fe78 72be 5c76 5e3d 7c0e 88be
00000010: 81aa a63d 002b 673e 479d 313c de7e 83bd
00000020: 2eb9 e13e 7602 1b40 2c9d b8be 7876 e43c
00000030: 19be 833e 1083 04bd d724 7dbe 70af 483e
00000040: e8bc 6abe 4b6d dbbc be63 51bd d5c7 adbd
00000050: 1883 16bd 1387 fc3e 392a 9bbd 680d 0abf
00000060: f8db c6bd 7d9d 9b40 7d63 013b fa93 bbbe
00000070: 3fdd c0bc 0f80 49bb 8c42 4a3b 3ec5 293b
00000080: de82 c3bb 4af9 5f3b 9923 0e3a 30ca 4740
00000090: 72ae d33d 0c99 d5bc dbbc e6be 4d74 d43e
000000a0: a341 7a3f 7df6 7fbc d6d3 023f 9afa 493e
000000b0: 4a79 bb3e 949f 54bc d908 183f 49ca 8b3f
000000c0: 7419 48bf 852d 8d3e ffc9 553f 9b89 0b3e
000000d0: 51b0 d1be 9e43 0e3f 1cbd 00be cfbf aa3e
000000e0: d825 28bd 8433 b1be b85e 213d e5d0 513e
000000f0: 3016 2c3f 4419 81bf ba0b c73f d3ef 7cbe
00000100: 39da c6be 2c79 223e a52a 86be ec18 953d
00000110: 782b 39bd 00c0 9bbc 187c dc3d 6044 463c
00000120: 90c3 6cbe 7c9f 32be e877 31be 46bc 013e
00000130: 14b6 08bd 08d0 883d 2037 933d b41e 0b3e
00000140: bb8a e93c 85c3 e63d e190 383d 37e9 fcbc
00000150: 83f8 f2bc c046 233e c69d 883e 14af a63f
00000160: be15 323e 7796 dc3c 60cb d33d 9769 42bd
00000170: bb8b 84be c28b 623d 44cb e6bd 26a2 dcbd
00000180: 2b75 4a3e a42b b23c 5841 38be 052f 493e
00000190: e987 3dbe d6a4 62be 74b2 e03d 0e4e debc
000001a0: eadc 473c 0ae6 cc3d f3bf 9e3c 7819 ca3b
000001b0: 109b b73c 826a 8c3c 1024 31bc 67a7 b33a
000001c0: 6399 93bb 9f68 8940 2b56 d6bd 961a 033b
000001d0: 756d 303d f557 18be 8f62 9b3f 5a9a 45be
000001e0: a9d0 f5bd 5a25 233e 938f 38be 1858 413e
000001f0: e04e 0a3e 927f 363f 5b4c b13e 9ad4 f4bd
00000200: ddce 833e 21dc 54bd 83bf 2e3e ddb2 34be
00000210: 425e b23d f2ad 373e 1d1b 303e 4513 663d
00000220: 4c68 663d 5a47 613e 2436 9fbd b35c 953f
00000230: 7ab0 9e3e 4ec6 213e a7fb a2be c69d 0abb
00000240: 959b b6be 12fe e7bc a7b1 65bc df29 ed3c
00000250: 4aeb 013c 35aa d4bc 1366 613c f41f 0d3e
00000260: d9ee 1ebf 20d6 bd3d dc40 c0bb 5e01 b03d
00000270: 23f4 053c 2980 073d 2dec c23d 59dc 893e
00000280: 2245 9c3d 6220 dc3d 6651 15bf c363 92be
00000290: d53e f5be 28ed 373f 8254 c6be 9ee4 dd3d
000002a0: 75c3 59be bb3a 023e afe9 76be c150 483e
000002b0: cb4c 9a3d ca9f 0f3e 808f 0bbe 803c 3d3c
000002c0: b235 783e d66d 6abe 10f2 8ebe 459f 913e
000002d0: 6c5c 17bd e9f7 dabd 46ff 3abc 87df 883f
000002e0: cd5f 673c 6833 8ebd 0ec6 b9bc d252 afbd
000002f0: 4715 34bd ea96 88bd e35d 643e 7b4e af3f
00000300: 1d51 a83c e591 3dbd 7712 9dbc dca4 953c
00000310: fb09 4ebf 6d21 58bc 7bc5 bfbc 7e4b 7d3d
00000320: 8409 f1bb b0e8 06bd 94c1 753c 860c 6b3d
00000330: bfa0 acbf 0ab1 05be 3053 2a3d b463 0f3e
-0.28295705 -0.23678967 0.054312095 -0.2657355 0.0813799 0.22574997 0.0108407205 -0.06420682
0.44086593 2.4220252 -0.36057413 0.027888522 0.2573097 -0.032351553 -0.24721085 0.19598174
-0.22923625 -0.026785513 -0.051120512 -0.084853806 -0.036746114 0.49321803 -0.07576413 -0.53926706
-0.097099245 4.8629746 0.0019743138 -0.36636335 -0.023542998 -0.0030746495 0.003086242 0.002590492
-0.0059665283 0.0034175687 0.00054221746 3.1217155 0.10336007 -0.026073955 -0.4506596 0.4149498
0.97756404 -0.015622732 0.51104486 0.19724503 0.36615974 -0.0129774995 0.593885 1.0921108
-0.7816384 0.2757379 0.83511347 0.13626711 -0.4095483 0.55571926 -0.1257214 0.33349463
-0.041051716 -0.34609616 0.03939697 0.20489843 0.67221355 -1.0085835 1.5550454 -0.2470086
-0.38838366 0.15866536 -0.2620441 0.07280144 -0.04520747 -0.019012451 0.107658565 0.012101263
-0.23121476 -0.17443651 -0.17330897 0.12669477 -0.03337677 0.06680304 0.07188249 0.13585931
0.028508535 0.11267761 0.045060042 -0.030872924 -0.029659515 0.15944958 0.26682872 1.302218
0.17391106 0.026927216 0.10341525 -0.04746398 -0.25887856 0.055309065 -0.112692386 -0.10773115
0.19771259 0.021749325 -0.17993677 0.19646843 -0.18508877 -0.22133192 0.10971537 -0.027136829
0.012198666 0.10004814 0.019378638 0.006167587 0.022412807 0.01714063 -0.010811821 0.0013706506
-0.004504369 4.294021 -0.10465654 0.002000486 0.043073136 -0.14877303 1.2139453 -0.19297162
-0.120026894 0.15932217 -0.18023519 0.18881261 0.13506651 0.71288407 0.34628567 -0.11954613
0.25743762 -0.051967744 0.17065243 -0.17646356 0.087093845 0.17937449 0.17197843 0.05617072
0.05625181 0.21999875 -0.077739984 1.1668915 0.30994016 0.15798303 -0.3183262 -0.002115117
-0.35665575 -0.028319392 -0.014019406 0.02895063 0.007929632 -0.025960067 0.013757247 0.1378172
-0.620832 0.09269357 -0.005867107 0.08594011 0.0081758825 0.033081207 0.09517703 0.26925924
0.076303735 0.10748364 -0.5832733 -0.28591737 -0.478995 0.71846247 -0.3873635 0.10834621
-0.21265967 0.12717716 -0.2411258 0.19562055 0.07534178 0.14025798 -0.1362896 0.011550069
0.24239233 -0.22893462 -0.27919054 0.28441826 -0.036953375 -0.10691816 -0.011413401 1.0693215
0.014121962 -0.06943399 -0.022677448 -0.085607186 -0.043965604 -0.066694096 0.2230144 1.3695825
0.02054649 -0.046281714 -0.019173844 0.018267088 -0.8048398 -0.013191563 -0.023409596 0.061839573
-0.0073558707 -0.03293675 0.014999766 0.05738499 -1.3486556 -0.13055816 0.04158324 0.14002877

net.0.bias f4 [16]
00000000: 3c8e 2c3e df42 773e 5268 a9be 5b55 9b3f
00000010: 67ab 173f 1864 24bd 23be 923e 2c09 f4bd
00000020: cc86 b0be 5abb 4a3f 17ac 26be 49ab d5be
00000030: ae94 813d a13b 26be b63a 623f 9e42 f7be
0.16851133 0.24146603 -0.33087403 1.2135423 0.59245914 -0.04013452 0.28660688 -0.11915812
-0.34477842 0.79192126 -0.16276585 -0.41732243 0.063271865 -0.16233684 0.88370836 -0.48293012

net.2.weight f4 [8, 16]
00000000: e10d 10be 5c10 323e d4b2 e73d 7915 a6bc
00000010: f906 803e 1cac 083e f83d fbbf 6111 40be
00000020: e75f a1be c80f 94be 0e7b debf c4cb 073f
00000030: 9c69 a6bd 9003 5f3b 5d96 04c0 fdcd 693f
00000040: f8eb 523d 76a9 22be 1475 ffbd 1944 a5bd
00000050: 8677 2f3d b83b 33bd 9466 71be 5f6b 0cbd
00000060: 9074 993c 6550 69be d000 9abc c9b1 e5bb
00000070: fcd7 69be 1136 73bb 55f0 473d 8dc6 0f3d
00000080: 295b b4bd 3732 0f3f 080a 02c0 4f31 0d3f
00000090: 9343 ba3e 60ae 473d 3762 96bd f7f5 92bd
000000a0: 205d 9cbe 3587 0d3f 7eec 47bf a7ad 26bf
000000b0: cb56 1c40 0802 1cbd b365 113f 7e9c 5b3e
000000c0: 37e0 0ac0 eecf 52be 53bc 8bc0 1d1d d53e
000000d0: b57a a33e 5a59 383e e22e 0cbf a97a 8dbd
000000e0: 27f6 66c0 5a91 033e 240f 37bf 0534 fd3e
000000f0: 5641 5abf 6957 6a3e 61a1 2dbd ba75 14bf
00000100: 7a7c debf 73b7 743d 4170 b2c0 cad2 163e
00000110: 0efc 09be 3c2d 7bbe 5f3c 68be f5e5 0b3e
00000120: 3ff2 9fc0 fff9 863e 3fa7 86be 0927 29c0
00000130: 1fba 3fbf 2617 ff3d ede3 563e cc94 a1c0
00000140: 9ff2 183e 5dd4 5240 37af ecbc 3411 d53e
00000150: 5101 85bf 8037 20be b828 26be 9036 5dbd
00000160: fc26 1f3e b7c2 503d 98dd 01bb 4e1b c63e
00000170: 61f2 9e3e 3960 cabe 0146 3ebe a896 073e
00000180: ddb4 4bbf c048 5d3f bed4 2fbe 398c 943d
00000190: bd49 d33e 94c0 313e 5782 07c0 9a07 b7bd
000001a0: 165e 25bf f5b6 36be 31c1 33bf c483 2cbf
000001b0: f891 b0be b21b e53e 19e3 80c0 eb92 043f
000001c0: 3e14 07c0 5873 10be 499d 8bc0 99a7 bd3e
000001d0: f30e b83e 627f 46be 573b 0bbf b07e ab3c
000001e0: 79ef 73c0 3fc1 b23d e4bf 44bf 1994 023f
000001f0: 1e02 11bf 1675 b03e f235 743e 60fb 9abe
-0.14067794 0.17389053 0.11313406 -0.02027391 0.2500532 0.13346905 -1.9628286 -0.1875663
-0.3151848 -0.2891829 -1.7381303 0.53045297 -0.08125612 0.0034029223 -2.0716774 0.9132994
0.05149457 -0.15884957 -0.12473503 -0.08069629 0.042838596 -0.043758124 -0.23574287 -0.034282085
0.01873234 -0.22784574 -0.018799216 -0.007009719 -0.22836298 -0.0037111084 0.048813183 0.035101462
-0.0880645 0.55935997 -2.0318623 0.55153364 0.3637968 0.04875028 -0.07342952 -0.0717582
-0.305398 0.55284435 -0.78095233 -0.6510872 2.4427974 -0.038087875 0.56795806 0.21446416
-2.169935 -0.20587131 -4.366739 0.41623774 0.31929556 0.18002835 -0.5475904 -0.06908161
-3.608774 0.12848416 -0.7150748 0.4945375 -0.85255945 0.22884907 -0.04239023 -0.57992136
-1.7381737 0.059745263 -5.576203 0.14728847 -0.13475057 -0.24528974 -0.2267928 0.1366194
-4.998321 0.26362607 -0.26299474 -2.6430075 -0.74893373 0.12455587 0.20985384 -5.0494137
0.14936303 3.2942116 -0.028892143 0.41614687 -1.0391027 -0.15646172 -0.1622647 -0.054007113
0.15542215 0.050966945 -0.0019815918 0.38692707 0.31044295 -0.39526537 -0.18581392 0.13241065
-0.7957285 0.8643913 -0.17170998 0.07253308 0.41267195 0.17358619 -2.1173303 -0.08936997
-0.6459669 -0.1784323 -0.7021666 -0.6738856 -0.34486365 0.44747692 -4.027722 0.5178668
-2.1106105 -0.141065 -4.36295 0.3704193 0.35948905 -0.1938453 -0.5438742 0.020934433
-3.8114913 0.08728265 -0.768553 0.5100723 -0.56643856 0.3446433 0.23848704 -0.3026991

net.2.bias f4 [8]
00000000: 7cac 9abd 176b 3c3c 6dc6 423f 22cd c33e
00000010: 3fd7 b63e 56b9 efbe 48fb 163c 47a3 003e
-0.0755243 0.011500142 0.76084024 0.3824244 0.35711095 -0.46821088 0.009215184 0.12562285

net.4.weight f4 [1, 8]
00000000: 212a 783f dce1 043e b408 88bf 65c1 643f
00000010: b461 a03f 8437 17bf b3cb 87bf 86c6 3f3f
0.96939284 0.12976784 -1.0627656 0.89357597 1.2529817 -0.59069085 -1.0609039 0.749123
